Collaborative_Filtering/Saved_Model/EBNERD_collaborative_filtering_model.pth (torch, 871366 bytes, 2 tensors)

useremb.weight f4 [18828, 10]
0	0xbe617005	-0.22015388
1	0x3f5c907c	0.86157966
2	0xbfc0f440	-1.5074539
3	0xc01a295b	-2.4087741
4	0xbf26852a	-0.6504694
5	0x3e9c48cd	0.30524293
6	0xb71fad62	-9.517507e-06
7	0x3f5ee8d3	0.8707401
8	0x3facfb47	1.3514184
9	0xbea54727	-0.32280847
10	0xbf537173	-0.82594985
11	0x3fd87e40	1.6913528
12	0xbc51f341	-0.012814344
13	0xbed83ab1	-0.42232278
14	0xbfc2c349	-1.5215846
15	0x3fa2887c	1.2697902
16	0x3e20609b	0.15661852
17	0x4002d90e	2.044498
18	0xbfbc3ebd	-1.4706646
19	0xbfb18562	-1.386883
20	0xbf83988a	-1.0280926
21	0x3ff2b608	1.8961802
22	0xbf1ae76e	-0.60509384
23	0xbeea4ccd	-0.4576172
24	0x3f9b9d92	1.2157462
25	0x3e608280	0.21924782
26	0x3f55c063	0.83496684
27	0x3f8000ef	1.0000285
28	0x3e124938	0.14285743
29	0x3f0f8e00	0.5607605
30	0xbf9c7ec2	-1.2226183
31	0x3ffa40dc	1.9551044
32	0x3fff2aef	1.9934977
33	0x3e8346de	0.25640005
34	0xbef91646	-0.48649806
35	0xbf8000e0	-1.0000267
36	0x3e9bce64	0.304309
37	0xbf6deb49	-0.9293714
38	0x3e05de8d	0.13073178
39	0xbe8bda69	-0.2731507
40	0x3fbfb137	1.4975957
41	0x3f350423	0.7070944
42	0x3f62946f	0.8850774
43	0xbfa4da3c	-1.28791
44	0x3f6353d9	0.88799816
45	0x3ebcc3d9	0.3686817
46	0x3f474b2e	0.7784909
47	0x3f18d492	0.59699357
48	0xbf842930	-1.032507
49	0xbf3917b8	-0.72301817
50	0x3f825f9b	1.0185426
51	0x3fc3ae03	1.5287479
52	0x3ec1c201	0.37843326
53	0x3f030bd6	0.51189935
54	0xbf23633f	-0.6382331
55	0xbea2b834	-0.3178116
56	0x3f4fff88	0.81249285
57	0xbfbc2dac	-1.4701438
58	0x3fd3cb8b	1.6546491
59	0xbc2cff51	-0.010558919
60	0xbfac3e4a	-1.3456509
61	0x3fd1f910	1.6404133
62	0x3f44e671	0.76914126
63	0xbf854616	-1.0412014
64	0xbf5774ed	-0.8416279
65	0xbfaf115b	-1.3677171
66	0xbfb26c6e	-1.393934
67	0x3eb6889f	0.3565111
68	0x3f596bce	0.8493012
69	0xbfa6ed73	-1.3041214
70	0xbe92e43a	-0.28689748
71	0xbebcdf8d	-0.36889306
72	0xbf24bb71	-0.6434851
73	0xbda97b03	-0.08275416
74	0x3fb02abf	1.3763045
75	0xbf5ddc39	-0.8666416
76	0x3fead27f	1.8345488
77	0xbff05761	-1.8776666
78	0xbf0d3899	-0.55164486
79	0xbedd4d3e	-0.43222994
80	0x3eef5984	0.46747983
81	0x3f1cfe0b	0.6132514
82	0x3fdc105a	1.719249
83	0x3d1f0a1e	0.038828008
84	0x3fcf9c82	1.6219637
85	0x3f9a536e	1.2056711
86	0x40056ada	2.0846467
87	0xbf93e26f	-1.1553477
88	0x3f00c388	0.50298357
89	0xbf1c5ab0	-0.6107588
90	0x3f10af0f	0.5651712
91	0xbf528392	-0.8223201
92	0xc00d45c3	-2.207383
93	0xbff51152	-1.9145911
94	0xbfa18ef7	-1.2621754
95	0xbea53bcf	-0.32272193
96	0x3f3936e9	0.7234941
97	0xbfc1593b	-1.5105356
98	0x3f90a84e	1.1301363
99	0xc016ccf2	-2.3562589
100	0xbf96dfe7	-1.178708
101	0xbe55d5ef	-0.2088239
102	0x3f952465	1.1651732
103	0xbf42166a	-0.7581545
104	0x3f0d3f20	0.55174446
105	0xbfc5c3c7	-1.5450372
106	0x3fa88275	1.3164812
107	0xbf9d292e	-1.2278192
108	0xbf250d91	-0.64473826
109	0xbe84fe51	-0.25975278
110	0x3f74414d	0.9541214
111	0x3faf339d	1.3687626
112	0x3f21e18a	0.6323477
113	0xbef792a7	-0.48354074
114	0x3e811692	0.25212532
115	0xbe5c3e8f	-0.21508239
116	0x4012d775	2.2944005
117	0xbf655b3f	-0.89592355
118	0xbee554c5	-0.44791237
119	0x3ec6a7c2	0.38799864
120	0xbed45996	-0.414746
121	0xbea4fd50	-0.32224512
122	0xbedd6875	-0.43243757
123	0xbfc7fc54	-1.562388
124	0x3d6b7c82	0.057491787
125	0xbecbbe42	-0.39793593
126	0xbf28ffbd	-0.66015226
127	0xbf7c3109	-0.9851232
128	0x3ef55631	0.4791732
129	0xbe96eba3	-0.29476652
130	0x3e13cfb1	0.14434697
131	0x3fe3bba5	1.779164
132	0x3f465657	0.77475494
133	0xbe209d79	-0.15685071
134	0x3eacdcd7	0.33762237
135	0x3e639896	0.22226176
136	0x3eb92b49	0.36165836
137	0x3f1587f0	0.5841055
138	0x3efcc0d2	0.4936586
139	0xbfaa5bd1	-1.330927
140	0x3ee135aa	0.43986255
141	0x3e78d79b	0.24300997
142	0x3f97dcc6	1.186425
143	0xbf12b3c7	-0.5730557
144	0x3eb9d0da	0.36292154
145	0xc00024ee	-2.002254
146	0xbf784c27	-0.969912
147	0xbf8ab40e	-1.0836198
148	0x3fc12742	1.5090106
149	0xbe89fa71	-0.26948884
150	0xc0083853	-2.1284378
151	0x3f047d53	0.5175373
152	0x3f8cc44b	1.0997404
153	0xbee57dd4	-0.44822562
154	0xbe26fc99	-0.16307296
155	0x3e995446	0.29947108
156	0x3f9d1eed	1.2275063
157	0xbe0f9aab	-0.14023845
158	0xbe1d8946	-0.15384397
159	0x402441bb	2.5665119
160	0x3ea08443	0.31350908
161	0x3f73d876	0.9525217
162	0xbf81988f	-1.0124682
163	0xbed20488	-0.41019082
164	0x3f1031b2	0.5632583
165	0xbeec1ffa	-0.46118146
166	0x3fa86101	1.3154603
167	0xbe7f83bc	-0.24952596
168	0x3f97772a	1.1833241
169	0x3fd1bec3	1.6386341
170	0x402e46c7	2.72307
171	0xbe16033b	-0.1464967
172	0x3ef32187	0.47486517
173	0xbfcc8757	-1.5978802
174	0x3ed5594a	0.41669685
175	0x3fcd7fd5	1.6054636
176	0xbf114f09	-0.56761223
177	0x3d51cca9	0.05122057
178	0x3f0e3ef0	0.55564785
179	0xbf973a83	-1.1814731
180	0xbe04fdf5	-0.12987502
181	0xbf0f8c7b	-0.5607373
182	0x3fba63ac	1.4561667
183	0xbfda93e7	-1.7076386
184	0xbf025180	-0.5090561
185	0x3eacd4d6	0.3375613
186	0x3ef8c0a5	0.48584476
187	0x3da18589	0.07886798
188	0x3f2c53d4	0.6731541
189	0x3f68bd4b	0.9091384
190	0x3f17e1a1	0.5932866
191	0x3f992718	1.1965055
192	0x3f873cf6	1.0565479
193	0xbf8237d3	-1.0173286
194	0x3d9c1169	0.07620508
195	0x3ebb0a1f	0.3653116
196	0x3fa74f0b	1.3070997
197	0xbceaabf7	-0.028646452
198	0xbf297cc9	-0.6620603
199	0x3f4b4447	0.7940106
200	0x3f4f3210	0.80935764
201	0x3eb2b4ee	0.34903663
202	0x3e5085dd	0.20363565
203	0xc012b9e0	-2.292595
204	0xbece7d59	-0.40330008
205	0x3fc2a7a4	1.520741
206	0x3e83416b	0.25635847
207	0x3e890084	0.26758206
208	0x3edae872	0.42755467
209	0x3d621bbb	0.055202227
210	0x3ef4c853	0.47809085
211	0x3fa21cb0	1.2665005
212	0x3e8a3049	0.26989964
213	0x3e21fa2b	0.15818088
214	0x3faace1e	1.3344152
215	0x3f1d2b43	0.6139414
216	0x3edb5208	0.42836022
217	0xbe0a42ad	-0.13501997
218	0xbe948f4f	-0.29015586
219	0xbf700453	-0.937566
220	0xbf515a9e	-0.81778896
221	0x3e2c10fe	0.16803357
222	0x3cf7da5f	0.030255495
223	0xbf933d57	-1.1503094
224	0x3f06db1a	0.5267807
225	0xbde29459	-0.11063451
226	0xbf23b758	-0.63951635
227	0xbf489371	-0.7834998
228	0xbe5e57a2	-0.21713117
229	0xbe60907a	-0.21930113
230	0x3f161bff	0.5863647
231	0xbeb474c3	-0.35245332
232	0x3e11f7a1	0.14254619
233	0x3fcbb891	1.59157
234	0x3ef9a9ac	0.48762262
235	0x40193f62	2.3944936
236	0x3fe8a5f6	1.8175647
237	0xbffd47f4	-1.9787583
238	0xbe08fae0	-0.13376951
239	0xbea4ee0c	-0.32212865
240	0xbfdad4ec	-1.7096229
241	0x3ea13861	0.31488326
242	0x3ed2be84	0.41160977
243	0xbf52aaec	-0.82292056
244	0x3e90af07	0.28258535
245	0xbf5ff98d	-0.8749016
246	0x3f8a205a	1.0791123
247	0xbe7380bb	-0.23779576
248	0xbe09994f	-0.13437389
249	0x3ec5354a	0.3851722
250	0x3d4cbd3b	0.04998515
251	0x3ff1844e	1.8868501
252	0x401a0818	2.406744
253	0x3f07e7fd	0.5308836
254	0xbe3d7919	-0.18503226
255	0xbfac1798	-1.34447

itememb.weight f4 [2910, 10]
0	0xbe6f93ea	-0.23396268
1	0x3f79cb4e	0.97575843
2	0x3f11dff0	0.56982327
3	0x3ef1f103	0.4725419
4	0x3f12a5b4	0.5728409
5	0x3fb70ffe	1.4301755
6	0xbecc8467	-0.39944765
7	0xbd172466	-0.036899947
8	0xbf5bfee2	-0.85935795
9	0x3deae762	0.11469914
10	0x3e9f4e50	0.31114435
11	0x3ec18121	0.3779383
12	0xbd9ec5e4	-0.077525884
13	0x3fca5e8b	1.5810102
14	0xbce9340b	-0.028467199
15	0x3f553987	0.83290905
16	0xbf8085e2	-1.0040858
17	0x3f2a6baa	0.6657053
18	0xbfd1bc7f	-1.638565
19	0x3f3719c5	0.71523696
20	0xbfed8af6	-1.8558033
21	0x3f8d6936	1.1047733
22	0xbf2f9f7a	-0.68602717
23	0x3e4a620f	0.19763969
24	0xbebb9b25	-0.36641803
25	0xbf18ccb6	-0.59687364
26	0xbd80c94d	-0.06288395
27	0x3ea2447d	0.31692877
28	0xbf547d42	-0.8300363
29	0x3eb587e1	0.3545523
30	0xbe93c4d8	-0.28861117
31	0xbf0e45f0	-0.55575466
32	0x3de0f641	0.10984469
33	0x3f317df9	0.69332844
34	0xbfbeb7eb	-1.4899877
35	0xbf739801	-0.95153815
36	0xbf3b25c7	-0.7310452
37	0xbd8c93ee	-0.06864153
38	0xbf8c20a6	-1.0947464
39	0xbfc4a983	-1.5364231
40	0x3ee21958	0.4415996
41	0x3f8853e3	1.06506
42	0x3f23786c	0.63855624
43	0x3f2d0c83	0.67597216
44	0xbf8af222	-1.0855143
45	0xbed7e161	-0.42164138
46	0xbf4c5e34	-0.7983124
47	0x3fd516fe	1.6647642
48	0x3f16c63b	0.58896226
49	0xbf8a07a8	-1.0783587
50	0x3e05141d	0.12995954
51	0x3f62297b	0.88344544
52	0x3f8c9367	1.0982484
53	0x3f8f8ae5	1.1214262
54	0xbfa8b759	-1.3180953
55	0xbf70ff0b	-0.94139165
56	0xbe2daeaf	-0.16961168
57	0x3e49cffc	0.19708246
58	0xbe6180c2	-0.22021773
59	0x3ec8daca	0.39229423
60	0x3ec1cace	0.3785004
61	0xbe0ae478	-0.13563716
62	0xbf3d47c6	-0.7393764
63	0xbfa61e70	-1.2978039
64	0xbe8b1d73	-0.27170905
65	0xbf41f359	-0.75761944
66	0x3f2cacd5	0.6745122
67	0xbc34594d	-0.011007619
68	0xbf31393a	-0.69227946
69	0x3ea58046	0.32324427
70	0x3fa3a694	1.2785211
71	0xbeea2706	-0.45732898
72	0xbec0de34	-0.37669528
73	0xbfae8baf	-1.3636378
74	0x3e1c39e8	0.15256464
75	0xbf844910	-1.0334797
76	0x3f9c26df	1.2199363
77	0x3efd68aa	0.49493915
78	0x40138c97	2.305456
79	0xbf1d69fc	-0.61489844
80	0xbda1f999	-0.07908935
81	0x3e7577c3	0.23971467
82	0xbfa008d0	-1.2502689
83	0x3e67f304	0.22651297
84	0xbe9f798b	-0.31147417
85	0x3f84261e	1.0324132
86	0xbe91313d	-0.28357878
87	0xbf2078a7	-0.626841
88	0xbebc8d70	-0.36826658
89	0x3e6c24df	0.2306094
90	0xbece8c4e	-0.4034142
91	0x3eb89cf1	0.36057237
92	0xbf773030	-0.96557903
93	0x3fa51877	1.2898091
94	0x3f298908	0.6622472
95	0xbed14a68	-0.4087708
96	0x3cf4e29f	0.029893218
97	0xbfaf640d	-1.3702408
98	0xbf14d844	-0.58142495
99	0xbfc49233	-1.5357116
100	0x3f6450df	0.891859
101	0xbf428c2b	-0.7599513
102	0xbf5a44ad	-0.8526104
103	0xbf6b73f2	-0.91973794
104	0xbf359929	-0.7093683
105	0x3f5a89ac	0.8536632
106	0x4026b3d4	2.6047258
107	0xbe93c7a9	-0.28863266
108	0xbe6a8155	-0.22900899
109	0x3fe96c4f	1.8236178
110	0xbe3a58ed	-0.18197985
111	0x3ebde7ba	0.37090856
112	0xbfb27b9d	-1.3943974
113	0xbdd858c8	-0.10563809
114	0xbf89c737	-1.076392
115	0xbf6efb88	-0.93352556
116	0xbf8cf00b	-1.1010755
117	0x3f2eed71	0.68331057
118	0x3f63aa51	0.8893176
119	0xbe18ab22	-0.14909032
120	0x3ea014c3	0.3126584
121	0xbf6dc7bb	-0.9288289
122	0xbfadac7e	-1.3568265
123	0xbf7ae89d	-0.9801119
124	0xbf2a0303	-0.66410846
125	0xbf061e77	-0.52390236
126	0xbfd52233	-1.6651062
127	0x3fdb3517	1.7125577
128	0x3f690b3b	0.9103276
129	0xbf77f413	-0.968568
130	0xbff156b8	-1.885459
131	0x3d76d93c	0.060265765
132	0x3e32e32a	0.17469469
133	0xbe7b80ea	-0.24560896
134	0x3f6c5728	0.9232049
135	0xbe9654d6	-0.293616
136	0xbe7b25e3	-0.24526171
137	0xbfb13a73	-1.3845962
138	0xbebb3700	-0.365654
139	0xbf4b609f	-0.7944431
140	0xbcf315a2	-0.029673401
141	0xbeb6d847	-0.35711882
142	0xbf898bb5	-1.074576
143	0xbdc845a3	-0.09778907
144	0x3f6a361c	0.91488814
145	0x3e518ba9	0.20463432
146	0xbc9feb07	-0.01952125
147	0xbf3c5102	-0.7356111
148	0xbebeb950	-0.37250757
149	0x3ee6f4ec	0.45108736
150	0x3f5e60d6	0.8686651
151	0xbffb051b	-1.9610933
152	0x3fda1812	1.7038596
153	0xc0372cc1	-2.8621066
154	0x3fc28090	1.5195484
155	0xbede8697	-0.4346206
156	0xbf9231a9	-1.1421405
157	0xbfaeeaa0	-1.3665352
158	0x3e773100	0.24139786
159	0xbf8a14a8	-1.0787554
160	0x3e9b2f13	0.30309352
161	0xbfa69458	-1.3014021
162	0xc0157760	-2.335411
163	0xbe7a787f	-0.24460028
164	0x3f32af03	0.69798297
165	0x3ed83a6c	0.42232072
166	0xbf99f0f2	-1.2026656
167	0xbf66d231	-0.90164477
168	0xbf64eed3	-0.89426917
169	0xbd170232	-0.036867328
170	0xbeb51ba3	-0.35372648
171	0x40352e5c	2.8309546
172	0x3e279a0d	0.1636736
173	0x3f70ed39	0.94111973
174	0x3e45b72b	0.19308154
175	0xbece0019	-0.4023445
176	0xbf759aa3	-0.9593908
177	0x3f0c826f	0.54886526
178	0x3e8e6ebd	0.27818862
179	0x3f9455b8	1.1588659
180	0x3f1262e5	0.5718215
181	0xbe3391dd	-0.17536111
182	0x3f864a69	1.0491458
183	0x3f220251	0.63284785
184	0xbf122569	-0.57088333
185	0xc019cbd4	-2.4030657
186	0x3f69ee94	0.91379666
187	0xbfb7aaf0	-1.4349041
188	0xbf971258	-1.1802473
189	0x3fc49cf2	1.5360396
190	0x40015f26	2.0214324
191	0xbfe254b5	-1.76821
192	0x3f0579f4	0.5213921
193	0x3f1d7c7c	0.61518073
194	0xbf625ed0	-0.8842592
195	0xbf8062d1	-1.0030156
196	0x3fd90440	1.6954422
197	0xbf4afd8e	-0.79293144
198	0xbf021d72	-0.5082618
199	0x3f582be2	0.8444196
200	0xbeed5978	-0.46357322
201	0xbf6bba42	-0.9208108
202	0xbf9dfd81	-1.2342988
203	0xbf073d01	-0.5282746
204	0xbf86d409	-1.0533458
205	0xbefb86ee	-0.4912638
206	0x3f225abf	0.6341972
207	0xbea2dd9e	-0.31809705
208	0xbdddf8e4	-0.10838488
209	0xbf9b0817	-1.2111844
210	0x3f0a0757	0.5391745
211	0x3eaa7493	0.33292064
212	0xbff689cc	-1.9260802
213	0xbe07abe2	-0.13249162
214	0x3ed0c8ed	0.40778294
215	0x3f6d7ac6	0.9276546
216	0x3f19d746	0.60094106
217	0xbec8b4f0	-0.39200544
218	0x3f936fe0	1.1518517
219	0xbd712566	-0.058873557
220	0x3f0d764d	0.5525864
221	0x3f8ce467	1.1007203
222	0x3f76a8b9	0.963512
223	0xbf1e8b91	-0.6193171
224	0x3fccdb45	1.6004416
225	0x3f7f03ef	0.9961538
226	0xbbec47b7	-0.0072106975
227	0xbfc9ab40	-1.5755386
228	0x3f84a42f	1.0362605
229	0x3c52d464	0.012868021
230	0x3f5bcf2b	0.8586299
231	0xbdc448bc	-0.095841855
232	0x3dbe26b8	0.09284729
233	0xbef0c5ba	-0.47025853
234	0x3f495f65	0.78661186
235	0x402c4b20	2.6920853
236	0x3f0e46bb	0.55576676
237	0xbed3d409	-0.41372707
238	0xbf09e0ec	-0.5385883
239	0xbf3ef28d	-0.74588853
240	0x3eab2e8d	0.33433953
241	0x3fa46470	1.2843151
242	0xbfa00540	-1.2501602
243	0x3f7628cc	0.96156
244	0x4008fe8d	2.1405365
245	0xbe8d2c6f	-0.27572963
246	0x3fd44cf8	1.6585989
247	0xbf9eb25a	-1.2398179
248	0x40032e61	2.0497057
249	0xbfadd736	-1.3581302
250	0x3f01309d	0.50464803
251	0x3f860eb1	1.0473233
252	0xbeee0155	-0.4648539
253	0xbfc2f960	-1.5232353
254	0xbf8f489f	-1.1194037
255	0xbf07b66f	-0.53012747
